ORIGINAL_Data/1730 RPM/1730_B_28_DE12.npz (npz, 968130 bytes, 1 tensors)

DE f8 [120984, 1]
0	0xc01a3bd0ee9a7cee	-6.5584142
1	0x40103f27f0dfd18c	4.0616758
2	0x401e73d03968d75a	7.613099
3	0xc001dd52560e298e	-2.2330672
4	0xc01ba9a6068f663a	-6.9156724
5	0x3fee6aa59047e140	0.9505184
6	0x4018fa2679e74cab	6.2442874
7	0x3fc82aa69cb75b4c	0.1888016
8	0xc01521fc745a44f0	-5.2831896
9	0xbff65b51951e09d6	-1.3972946
10	0x4010107d4e09784f	4.016103
11	0x3ff89551357cb98f	1.5364544
12	0xc009f1a650614163	-3.242993
13	0xbfea1150f5bbd960	-0.8146138
14	0x4004f851d0ad2c1e	2.6212498
15	0x3fdf82a5614df8b1	0.492349
16	0xbff8f2a67b296c0a	-1.5592408
17	0x3fd5aaa7081725b6	0.3385408
18	0x3fe93bfbc4311cd8	0.7885722
19	0xbfdbeaa5fba7abab	-0.4361968
20	0xbfd0755292740b6b	-0.2571608
21	0x3fefe6a550870111	0.996905
22	0x3ff521fc745a44f0	1.3207974
23	0xbff3095223b942ac	-1.1897756
24	0xc0022ba79e3f1ac8	-2.2713158
25	0x3ff2f1fcd24e160e	1.184079
26	0x4007bafc04c8bc9d	2.966301
27	0xbff8ebfbd19d1626	-1.5576132
28	0xc0087fa68e74a269	-3.0623294
29	0x40012e52736a5ae8	2.1476182
30	0x400378fcbba7e15b	2.4340758
31	0xc00082a7e58cb733	-2.0637968
32	0xbffb68a6117720c9	-1.713049
33	0x3ffe0d504a9b2ec5	1.8782504
34	0x3ff1cca7ae2f52d4	1.1124646
35	0xbffb39fb6ea0c78b	-1.7016558
36	0xbfc8fffbce4217d3	-0.195312
37	0x3ffacf50d5db6948	1.6756142
38	0x3fc5dffc5479d4d8	0.170898
39	0xbff104a7cfbd4215	-1.0636366
40	0x3fda4d50ebaade65	0.410969
41	0x3fe5b151b1a37b9b	0.6778954
42	0xbfef96a55df2fa5e	-0.9871394
43	0xbfda9d50de3ee518	-0.4158518
44	0x3fe54d51c26a733b	0.6656884
45	0x3fe6e3fc28daea9d	0.7153302
46	0xbfe3affcb26da5f6	-0.6152328
47	0xbfe35ffcbfd99f43	-0.6054672
48	0x3fece1507cf015a7	0.9025042
49	0xbfd46aa73dc70aec	-0.3190096
50	0xbfeb43fb6cf34862	-0.8520486
51	0x3fcffaa54d2c02bd	0.2498366
52	0x3feaf3fb7a5f41af	0.842283
53	0xbfb78aa6b78f4de6	-0.0919594
54	0xbfe921511dffc548	-0.785317
55	0x3fcfaaa55a97fc0b	0.2473952
56	0x3fc5faa6faab2c69	0.1717118
57	0x3fc3affcb26da5f6	0.1538082
58	0x3fee0d504a9b2ec5	0.9391252
59	0xbfe35952164d495f	-0.6046534
60	0xbffb7950b955f783	-1.717118
61	0x3ff94ffbc0d61e85	1.5820272
62	0x3ffedf50275fc05a	1.9295198
63	0xbffe53503edcb4a1	-1.8953402
64	0xbff5b7fc5b2fd17f	-1.3574184
65	0x3ffab7fb84703ca9	1.6699176
66	0x3ff7d751555d29a7	1.4900678
67	0xbff1f4a7a779562d	-1.1222302
68	0xbffbf4a5f9fa2c81	-1.7472286
69	0x3fec5550946d09ef	0.8854144
70	0x3ff91aa674736f63	1.5690064
71	0xbfd73aa6c4fb4734	-0.3629548
72	0xbfeb0ea620909940	-0.8455382
73	0x3fc165526a301f82	0.1359046
74	0x3fe8affbdbae1120	0.7714824
75	0xbfbcbffb2d326832	-0.1123044
76	0xbfe205524f582ce8	-0.5631496
77	0x3fca8ffb8b263950	0.207519
78	0x3ff366a76965f527	1.212562
79	0x3fbdfffaf78282fd	0.1171872
80	0xc0028fa78d782327	-2.3201438
81	0x3fe13d5270e61c29	0.5387356
82	0x400c695091120b9b	3.5514232
83	0xbff38b520de9cd8f	-1.2215138
84	0xc00c06fb4c3c18b5	-3.503409
85	0x400410a74ce08363	2.5081316
86	0x400c47fb41545e26	3.5351472
87	0xc0062ca6f247b099	-2.7718028
88	0xc00c4cfb407d9e91	-3.5375886
89	0x40040351f9c7d79b	2.5016212
90	0x400c87508c098e1e	3.5660716
91	0xc001f2fcfd1640b4	-2.2436466
92	0xc0061551a0dc83fa	-2.7604096
93	0x4002555241ec339a	2.2916608
94	0x40000dfd4e74d819	2.0068308
95	0xbfff3ffac1d29dc7	-1.95312
96	0xbff29b52362db977	-1.1629202
97	0x3ff9c4a657edfd9f	1.6105102
98	0x3fe4e951d3316adc	0.6534814
99	0xbff297fce1678e85	-1.1621064
100	0x3fd5b7fc5b2fd17f	0.3393546
101	0x3ff151526d8b1dd6	1.082354
102	0xbfeb36a619da9c99	-0.850421
103	0xbfc87aa68f4b61fe	-0.191243
104	0x3ff50751ce28ed5f	1.314287
105	0xbfcebaa582dbe7f3	-0.240071
106	0xbffa8ffb8b263950	-1.660152
107	0x3fe1fea7a5cbd704	0.5623358
108	0x3ff9e950fc71d606	1.619462
109	0xbfe3bd52058651be	-0.6168604
110	0xbff52bfc72acc5c6	-1.3232388
111	0x3fe427fc9e4bb002	0.6298812
112	0x3fea53fb9537344a	0.8227518
113	0xbff2eea77d87eb1b	-1.1832652
114	0xbfd7cd51570aa8d0	-0.3719066
115	0x3ff0ed527e521577	1.05794
116	0x3fc64aa6ed3f331c	0.1741532
117	0xbfe09d528bbe0ec4	-0.5192044
118	0x3fc0755292740b6b	0.1285804
119	0x3fc44ffc9795b35b	0.158691
120	0xbfd582a70ecd225d	-0.3360994
121	0x3fcd5ffb125a7597	0.2294916
122	0x3fb7f5515054ac2a	0.093587
123	0xbfdfc55000c9539c	-0.496418
124	0x3fb6b5518604915f	0.0887042
125	0x3fed87fb0ba478f1	0.9228492
126	0xbfbcf55079951754	-0.1131182
127	0xbfec26a5f196b0b1	-0.8797178
128	0x3fe63d519a268753	0.6949852
129	0x3ff0c8a7d9ce3d0f	1.0489882
130	0xbfe1f7fcfc3f811f	-0.561522
131	0xbff3b9fcb0c026cc	-1.232907
132	0x3fe762a6be454a8d	0.7307924
133	0x3ff6bbfc2f90e743	1.4208948
134	0xbfe7abfc074cfb5b	-0.7397442
135	0xbff36d5212f24b0c	-1.2141896
136	0x3ff1fb525105ac11	1.1238578
137	0x3ff2a8a78946653f	1.1661754
138	0xbff84bfbec7508c1	-1.5185508
139	0xbfe6e3fc28daea9d	-0.7153302
140	0x3ffa71fb902eb6cd	1.6528278
141	0x3fe96aa667077616	0.7942688
142	0xbff4bdfc85213c91	-1.2963834
143	0xbfb46aa73dc70aec	-0.0797524
144	0x3ff406a74e8e028d	1.2516244
145	0xbfe381520f974cb8	-0.6095362
146	0xbfe046a7ef9db22d	-0.508625
147	0x3feafaa623eb9793	0.8430968
148	0xbfb6b5518604915f	-0.0887042
149	0xbfee8550367938d1	-0.9537736
150	0x3fe269523e913547	0.5753566
151	0x3ff3a2a75f54fa2d	1.2272104
152	0xbfe316a776d1ee75	-0.5965154
153	0xbff212a7a270d8b0	-1.1295544
154	0x3fe64aa6ed3f331c	0.6966128
155	0x3ff58ca70d1fa333	1.346839
156	0xbfebf150a534018f	-0.8732074
157	0xbff6d35180fc13e2	-1.4265914
158	0x3feaa3fb87cb3afc	0.8325174
159	0x3ff8dea67e846a5d	1.554358
160	0xbfe4ad51dd4265d6	-0.6461572
161	0xbff0fdfd2630ec31	-1.062009
162	0x3fef17fac8889a6e	0.9716772
163	0x3fe33ea7701bf1ce	0.6013982
164	0xbfee2ea59a58dc3a	-0.9431942
165	0x3fb03ffd46115c49	0.0634764
166	0x3ffcb2a5da19bc6a	1.7936152
167	0x3fb99ffbb36a2538	0.1000974
168	0xc00350fcc25dde02	-2.4145446
169	0xbfe9effba5fe2bea	-0.8105448
170	0x4008caa681df68b1	3.0989504
171	0x3ff7d3fc0096feb5	1.489254
172	0xc00e8da58a68a42e	-3.8191634
173	0xbff2abfcde0c9031	-1.1669892
174	0x401162d26a9b7f4d	4.3465058
175	0x3ff585fc63934d4f	1.3452114
176	0xc01021fd4b19d9c6	-4.0331928
177	0xbff70f5176eb18e8	-1.4412398
178	0x400f73a563d23770	3.9314678
179	0x3ff82dfbf17d863e	1.5112266
180	0xc005afa707406622	-2.7107678
181	0xbfe4e951d3316adc	-0.6534814
182	0x3ff4e951d3316adc	1.3069628
183	0xbfdb22a61d359aec	-0.4239898
184	0x3fc2555241ec339a	0.1432288
185	0x3ff758a6bff2c9b7	1.4591434
186	0xbff21ca7a0c35987	-1.1319958
187	0xc0046c51e82a2065	-2.5528906
188	0x3ff7c35158b827fa	1.485185
189	0x40109fd28b52aef9	4.1560766
190	0xbffb0ea620909940	-1.6910764
191	0xc0143e7c9a8551e4	-5.0610222
192	0x400279fce6700c02	2.3095644
193	0x401611fc4c165908	5.517564
194	0xc00076fd3cd720e4	-2.0581002
195	0xc01906a677ce6db7	-6.2564944
196	0x3ffcb2a5da19bc6a	1.7936152
197	0x401db925ae0f7264	7.4308078
198	0xbff165526a301f82	-1.0872368
199	0xc0185026966cbe6f	-6.0782722
200	0x3feddea5a7c4d588	0.9334286
201	0x4011eb7cfe586013	4.479969
202	0xbfe8b6a6853a6704	-0.7722962
203	0xc00c08a5f69f2e2e	-3.5042228
204	0x3fee06a5a10ed8e1	0.9383114
205	0x40076ffc115df655	2.92968
206	0xbfec47fb41545e26	-0.8837868
207	0xbff9fd50f916d7b3	-1.6243448
208	0x3fe67ffc39a1e23d	0.7031232
209	0x3fcafaa623eb9793	0.2107742
210	0xbfcd0ffb1fc66ee5	-0.2270502
211	0x3fe1a152601f2488	0.5509426
212	0x3f9c5550946d09ef	0.0276692
213	0xbfe406a74e8e028d	-0.6258122
214	0x3fd4fd51cfd66c89	0.3279614
215	0x3fea8950e199e36b	0.8292622
216	0xbfd0c5528508121d	-0.2620436
217	0xbfe7abfc074cfb5b	-0.7397442
218	0x3fda32a6457986d5	0.4093414
219	0x3fc87aa68f4b61fe	0.191243
220	0xbfe053fd42b65df5	-0.5102526
221	0x3fc80ffbf68603bb	0.1879878
222	0x3fe87aa68f4b61fe	0.764972
223	0x3fdcf55079951754	0.4524728
224	0xbfebfea5f84cad58	-0.874835
225	0xbfcdcaa5ab1fd3db	-0.2327468
226	0x3fe44ffc9795b35b	0.634764
227	0xbfded550290d3f84	-0.4817696
228	0xbfe71951753d99bf	-0.7218406
229	0x3ff11bfd21286eb4	1.0693332
230	0x3ff38b520de9cd8f	1.2215138
231	0xbff4c151d9e76783	-1.2971972
232	0xbfe492a737110e45	-0.642902
233	0x3ff78aa6b78f4de6	1.4713504
234	0x3fc3affcb26da5f6	0.1538082
235	0xbff0cbfd2e946801	-1.049802
236	0xbfc165526a301f82	-0.1359046
237	0x3fe9c1510327d2ad	0.8048482
238	0x3fece1507cf015a7	0.9025042
239	0xbfe69aa6dfd339ce	-0.7063784
240	0xbff463fc943ab508	-1.2744108
241	0x3ff316a776d1ee75	1.1930308
242	0x3ffc3aa5ee3bb25e	1.7643184
243	0xbff2f8a77bda6bf2	-1.1857066
244	0xbffd98a5b3834fab	-1.8497674
245	0x3ff3a2a75f54fa2d	1.2272104
246	0x3fff1ea57214f052	1.944982
247	0xbff391fcb7762373	-1.2231414
248	0xbff31352220bc383	-1.192217
249	0x3ffc23509cd085bf	1.7586218
250	0x3fe596a70b72240a	0.6746402
251	0xbffc44a5ec8e3334	-1.7667598
252	0xbff000a7fb5c2c51	-1.0001602
253	0x3ffb68a6117720c9	1.713049
254	0x3fef1ea57214f052	0.972491
255	0xc00008fd4f4b97ae	-2.0043894
