ORIGINAL_Data/1772 RPM/1772_B_28_DE12.npz (npz, 971066 bytes, 1 tensors)

DE f8 [121351, 1]
1.6381794 -3.084302 -0.9228492 3.0810468 -0.1391598 -2.9427008 1.3191698 2.2900332
-2.0190378 -1.5860962 2.1386664 0.821938 -1.8115188 -0.199381 1.127113 0.3914378
0.0008138 -0.435383 -0.8129862 0.4907214 1.802567 -0.2262364 -2.4674416 -0.1399736
3.0834882 0.8846006 -3.1917236 -1.558427 2.9085212 1.4778608 -2.4894142 -0.8048482
2.0434518 0.1350908 -1.3256802 0.9415666 0.6990542 -1.8123326 -0.6160466 2.27864
1.0563124 -2.4234964 -1.623531 2.3429302 2.0524036 -2.5585872 -2.4177998 2.3217714
2.3347922 -1.2459278 -1.4225224 0.3238924 0.3979482 0.8146138 0.8365864 -1.3948532
-1.595048 2.0133412 2.3868754 -2.693678 -2.8507414 2.7522716 3.2128824 -2.0613554
-3.2421792 1.908361 3.6482654 -1.078285 -3.780101 0.7096336 3.62141 -0.8105448
-2.9597906 1.1970998 2.7774994 -1.2524382 -2.0198516 1.0270156 1.1702444 -0.8081034
-0.3035474 0.9944636 -0.712075 -0.667316 2.0149688 0.130208 -3.2779864 0.4589832
4.1813044 -0.5867498 -4.3261608 0.9733048 4.8445514 -1.1254854 -4.80142 1.253252
4.2569878 -0.9301734 -3.4334222 1.1100232 2.6969332 -1.574703 -1.647945 1.4062464
0.663247 -1.155596 0.016276 1.1458304 -0.4565418 -1.0514296 0.7991516 1.0432916
-1.3330044 -1.1645478 1.8627882 1.432288 -2.2648054 -1.293942 2.9207282 1.0872368
-3.161613 -0.699868 3.2055582 0.618488 -2.6017186 -0.3385408 2.0882108 -0.419107
-1.489254 1.4013636 0.716144 -1.8448846 -0.2905266 2.6432224 0.5102526 -3.2462482
-0.3360994 3.360994 0.1538082 -2.9776942 0.0846352 2.3974548 -0.1733394 -1.5266888
0.8642556 0.6282536 -1.8953402 0.6160466 2.9760666 -1.4013636 -3.698721 2.1598252
4.4018442 -1.8017532 -4.463693 1.1498994 4.6760948 -0.219726 -4.0356342 -0.4296864
3.4578362 0.6380192 -2.4601174 -0.044759 0.8430968 -0.5761704 1.192217 1.7610632
-2.2843366 -2.7237886 2.9353766 4.0136616 -2.6928642 -4.9300004 2.3738546 5.1277538
-1.7285112 -4.7802612 0.9912084 3.9925028 -1.0001602 -2.5414974 1.0164362 0.9269182
-1.4778608 0.6290674 2.1744736 -2.229812 -2.3486268 2.775058 2.6342706 -2.9597906
-2.811679 3.3544836 2.5358008 -2.4340758 -2.2477156 1.5470338 2.4218688 -1.2874316
-2.091466 1.6373656 1.6251586 -2.0125274 -0.7796204 1.7569942 0.2539056 -1.0441054
-0.191243 0.9472632 0.712075 -0.9082008 -1.4501916 0.7836894 2.0760038 -0.6518538
-2.3388612 0.720213 2.5911392 -0.3198234 -2.311192 0.166829 2.4519794 0.6559228
-2.8483 -0.6567366 2.8995694 0.3800446 -1.0725884 -0.4622384 0.6933576 0.9204078
-0.0984698 -0.4020172 -1.3443976 0.260416 2.2184188 0.2555332 -3.2983314 -1.1197888
4.069 0.931801 -4.321278 -1.318356 4.0266824 1.4453088 -2.8214446 -1.1507132
1.1808238 1.558427 -0.2124018 -1.2622038 0.231933 0.5989568 0.1513668 0.4866524
00000000: c7b1 3f9a fb35 fa3f 2ee6 e786 a6ac 08c0
00000010: f178 a40b fb87 edbf 4a90 5bdd fba5 0840
00000020: c67d f502 fdcf c1bf e64d 8fb7 a68a 07c0
00000030: 0cef cdca 511b f53f a808 26ed fc51 0240
00000040: 311a 434a fd26 00c0 40f5 b468 a660 f9bf
00000050: b46e 2821 fd1b 0140 65de aaeb 504d ea3f
00000060: 386d 2123 fbfb fcbf a7cd 380d 5185 c9bf
00000070: da57 1ea4 a708 f23f 9bc3 5a21 510d d93f
00000080: e190 5731 a6aa 4a3f e3ff 8ea8 50dd dbbf
00000090: 972d a3a2 fb03 eabf 20a1 1cbb fa67 df3f
000000a0: d194 9d7e 50d7 fc3f 5417 9579 50f5 ccbf
000000b0: be51 8605 52bd 03c0 57d5 26a9 a7ea c1bf
000000c0: b5d0 84dc fbaa 0840 0ab4 e0ea a54e ec3f
000000d0: 99f8 fe61 a688 09c0 1841 6326 51ef f8bf
000000e0: 0ac8 4dc3 a644 0740 77a5 c05d 51a5 f73f
000000f0: 8395 f9fd 51ea 03c0 add2 2703 51c1 e9bf
00000100: 619e df41 fd58 0040 f2c7 fec3 a74a c13f
00000110: 9d46 ff70 fc35 f5bf 7230 4047 5021 ee3f
00000120: c834 e4e9 a65e e63f 2a98 e777 50ff fcbf
00000130: dafb f95b a7b6 e3bf 0adc ba9b a73a 0240
00000140: 92bf c5d4 a7e6 f03f 35ca 9f14 5263 03c0
00000150: c1ac 50a4 fbf9 f9bf 657c 4e30 52be 0240
00000160: 948a 2194 526b 0040 b4b6 df90 fc77 04c0
00000170: e633 ea6b a757 03c0 194e 3ee2 fc92 0240
00000180: aaa5 6f88 a7ad 0240 eed5 22fd 51ef f3bf
00000190: 283d 1dd9 a6c2 f6bf 9f11 5b30 a7ba d43f
000001a0: de21 20ba fb77 d93f 60d9 bbf5 5011 ea3f
000001b0: 71e8 88d7 50c5 ea3f 0089 cb96 5151 f6bf
000001c0: a7cd 380d 5185 f9bf e283 8da1 521b 0040
000001d0: ee03 3521 5218 0340 33a3 1f0d a78c 05c0
000001e0: 77d3 d281 51ce 06c0 3fad fdf8 a604 0640
000001f0: e426 0fb0 fbb3 0940 c876 63e6 a77d 00c0
00000200: ea2b fea5 fbef 09c0 c363 3f8b a588 fe3f
00000210: e106 21c5 a52f 0d40 1b47 acc5 a740 f1bf
00000220: 7c9d d497 a53d 0ec0 5f91 0486 51b5 e63f
00000230: 4642 5bce a5f8 0c40 ea2b fea5 fbef e9bf
00000240: d410 b0b1 a6ad 07c0 2fc5 b01e 5227 f33f
00000250: e846 fd9a 5138 0640 7f2d 54a3 fc09 f4bf
00000260: aa2f a6f4 a728 00c0 86b5 e7e8 a76e f03f
00000270: fa3b 2531 52b9 f23f 3e2a 59a9 fbdb e9bf
00000280: 0c4b f212 526d d3bf 64ff e153 a5d2 ef3f
00000290: 0c93 a982 51c9 e6bf 041f 8315 a75a e5bf
000002a0: d4ae 53f6 a71e 0040 8cba d6de a7aa c03f
000002b0: b9dc 05ef 5039 0ac0 9775 5a12 fb5f dd3f
000002c0: ce7b 52dc a7b9 1040 c2e7 3d84 a7c6 e2bf
000002d0: e4f2 c418 fd4d 11c0 3646 a11b 5025 ef3f
000002e0: 002a 0b15 d260 1340 f601 92fa fc01 f2bf
000002f0: f870 c971 a734 13c0 7158 1af8 510d f43f
00000300: 4be2 51cf 2707 1140 f77d 9301 fbc3 edbf
00000310: 0ae2 f20e a677 0bc0 fed1 dcaf a7c2 f13f
00000320: 18f9 abb6 5193 0540 029c dec5 fb31 f9bf
00000330: 20b5 8993 fb5d fabf 3de2 a139 fc7f f63f
00000340: 8f71 c5c5 5139 e53f f436 363b 527d f2bf
00000350: 8cba d6de a7aa 903f 9a33 ec41 5255 f23f
00000360: 3e72 1019 fb37 ddbf e6bd 20d8 a7d2 f0bf
00000370: 6f79 5160 a692 e93f 7110 6388 52b1 f03f
00000380: 20c9 f66b fc53 f5bf 5b0f badf fca1 f2bf
00000390: cdfe e5ff facd fd3f 8140 67d2 a6ea f63f
000003a0: 006f 264b 521e 02c0 babb ce86 fcb3 f4bf
000003b0: 220a 1cbf a65d 0740 821f 306a 5265 f13f
000003c0: 1ade acc1 fb4a 09c0 ad8a 7093 5165 e6bf
000003d0: a365 93b2 fba4 0940 87fd 9e58 a7ca e33f
000003e0: c428 63d7 51d0 04c0 b625 1708 a7aa d5bf
000003f0: 633b 29dd a7b4 0040 3a94 a12a a6d2 dabf
00000400: b5fe 9600 fcd3 f7bf 91e0 fc3c fc6b f63f
00000410: 8140 67d2 a6ea e63f ff4d deb6 a584 fdbf
00000420: 858e 67e1 fc97 d2bf e26f 20c9 5125 0540
00000430: f55d b642 fd53 e03f 4897 edf9 50f8 09c0
00000440: 5d22 cd0e a782 d5bf f46a 80d2 50e3 0a40
00000450: f6a5 6db2 fcaf c33f 3ce9 3356 51d2 07c0
00000460: b625 1708 a7aa b53f 141b 3dc8 fc2d 0340
00000470: 8bdb 0d47 fc2f c6bf 36b6 323c 516d f8bf
00000480: c150 2c5c fba7 eb3f 3904 334b a71a e43f
00000490: a1b4 dc3e 5053 febf dafb f95b a7b6 e33f
000004a0: 49be 6d01 fcce 0740 91e0 fc3c fc6b f6bf
000004b0: 323a 2009 fb96 0dc0 ff9c 386f 5247 0140
000004c0: 6159 c40b 7d9b 1140 df69 d729 fbd3 fcbf
000004d0: 5989 7956 d2da 11c0 550a cbe9 fc65 f23f
000004e0: 8ffb fb31 52b4 1240 cd5a 0a48 fb1f ccbf
000004f0: fb79 ae4a 7d24 10c0 684d e262 fb7f dbbf
00000500: 3a66 8f06 a6a9 0b40 ec0a c73d a76a e43f
00000510: 7d90 0a08 52ae 03c0 8140 67d2 a6ea a6bf
00000520: 9397 eb23 a6fa ea3f 2b8b 1de8 fc6f e2bf
00000530: 83c3 0b22 5213 f33f 9506 239b 502d fc3f
00000540: 5972 7044 5246 02c0 b2bd 71ad 51ca 05c0
00000550: a58c 13ba a67b 0740 19d8 744e fd0d 1040
00000560: ba8d bc62 fc8a 05c0 5311 5d06 52b8 13c0
00000570: 5dac 037b a7fd 0240 47c2 63e4 d182 1440
00000580: c150 2c5c fba7 fbbf d259 c1ca fc1e 13c0
00000590: d3a7 b0ad fab7 ef3f e781 d94e a5f0 0f40
000005a0: 512c 5cfb a700 f0bf c6f3 be96 fc54 04c0
000005b0: 3b87 d79a 5243 f03f 6626 625b 50a9 ed3f
000005c0: 77a5 c05d 51a5 f7bf 1e5a bff4 5121 e43f
000005d0: 821f 306a 5265 0140 aad3 81ac a7d6 01c0
000005e0: b412 04d9 fcc9 02c0 7d06 d49b 5133 0640
000005f0: ae83 de76 fc12 0540 d410 b0b1 a6ad 07c0
00000600: c4cc 3e8f 517e 06c0 2cbf 677f fbd5 0a40
00000610: 775d 09ee 5149 0440 5be1 a7bb fc78 03c0
00000620: 11ac 0551 52fb 01c0 dae7 8c83 a6c0 f83f
00000630: 439f d9bf fc5f 0340 2964 9de0 5199 f4bf
00000640: 4791 b586 52bb 00c0 d586 7945 a632 fa3f
00000650: a502 dd4d a600 fa3f 696e 2af7 a719 00c0
00000660: 0a6c 297b a6f2 e8bf db2f 44f3 a51c fc3f
00000670: 495c 1146 fd3f d03f 633b 29dd a7b4 f0bf
00000680: fe61 4b8f a67a c8bf af89 16ea fa4f ee3f
00000690: 0c93 a982 51c9 e63f e56e c61f fb0f edbf
000006a0: 4ff1 6e1b fc33 f7bf 7f19 e7ca fb13 e93f
000006b0: 4bf9 5ae1 a79b 0040 14bf 1880 fcdb e4bf
000006c0: 0811 5fdc fcb5 02c0 f6ed 2422 fc0b e73f
000006d0: 9f11 5b30 a7ba 0440 b4b6 df90 fc77 d4bf
000006e0: f436 363b 527d 02c0 041f 8315 a75a c53f
000006f0: c2b9 2b60 a79d 0340 896c d6cf 51fd e43f
00000700: 0c93 a982 51c9 06c0 6dc2 6279 fc03 e5bf
00000710: d6db 0b71 5132 0740 a55e 0196 a652 d83f
00000720: 7d1a 4174 5229 f1bf b924 bd5e 5095 ddbf
00000730: 8bdb 0d47 fc2f e63f 4477 ff0e fb73 ed3f
00000740: f4c6 a41a 5135 b9bf c97c 9b59 a6ba d9bf
00000750: 5d22 cd0e a782 f5bf 8cba d6de a7aa d03f
00000760: 0ba7 165b 52bf 0140 dab3 42ec a75a d03f
00000770: 8bf5 b292 fb62 0ac0 57d5 26a9 a7ea f1bf
00000780: 2db2 9def a746 1040 bf29 ac54 50d1 ed3f
00000790: 79b2 9b19 fd48 11c0 1ac4 0776 fc17 f5bf
000007a0: e283 8da1 521b 1040 a3ef c91e fc1f f73f
000007b0: 71ce e38b 5192 06c0 4735 913e 5269 f2bf
000007c0: 456a 357f a7e4 f23f 1841 6326 51ef f83f
000007d0: b546 4e70 fb2f cbbf d830 9e9c fc31 f4bf
000007e0: 4a7c ee04 fbaf cd3f 21f0 7673 a72a e33f
000007f0: 439f d9bf fc5f c33f 3646 a11b 5025 df3f
