ORIGINAL_Data/1750 RPM/1750_B_28_DE12.npz (npz, 968130 bytes, 1 tensors)

DE f8 [120984, 1]
-1.6894488 0.166829 2.4218688 -1.2890592 -2.791334 2.364089 2.1427354 -2.8743416
-1.4208948 3.006991 1.0530572 -2.0564726 -1.0115534 0.6599918 0.8805316 0.1049802
-0.427245 -1.5511028 0.4866524 3.088371 -0.793455 -3.2006754 1.1767548 2.7783132
-1.5714478 -1.664221 2.0418242 0.5460598 -2.1988876 0.6640608 2.404779 -2.2208602
-2.669264 3.0257084 2.5195248 -2.8483 -2.2835228 2.3819926 2.494297 -0.0374348
-2.1411078 -2.7783132 2.2517846 3.926585 -3.1355714 -4.0551654 3.8997296 4.2488498
-3.6124582 -3.914378 3.7239488 2.3811788 -3.3821528 -0.0268554 2.4039652 -0.9383114
-1.5641236 1.8440708 0.480142 -2.6904228 0.3352856 2.9736252 -1.54622 -2.978508
3.4358636 1.8579054 -4.3790578 -1.2019826 4.4205616 0.3352856 -3.9859924 1.2784798
3.9037986 -1.623531 -3.7825424 2.40071 2.3486268 -3.0533776 -0.9228492 2.3998962
0.1855464 -1.765946 0.8268208 0.2083328 -1.6943316 1.1946584 1.9059196 -1.582841
-1.6861936 2.7229748 1.4697228 -3.21451 -1.5022748 2.636712 1.1092094 -2.1679632
-0.0455728 1.5852824 -0.2091466 -1.1409476 0.0634764 0.7804342 -0.7397442 0.0236002
1.7488562 -0.0585936 -1.6276 0.5094388 1.2207 -0.882973 -1.0058568 0.492349
1.2825488 -0.2832024 -0.7788066 0.5672186 0.0170898 -0.8390278 0.2270502 1.1531546
-0.0626626 -1.1905894 0.2669264 1.859533 -0.93587 -1.9262646 0.9537736 1.8237258
-0.264485 -1.9466096 0.3043612 0.7584616 -1.0530572 -0.0618488 1.1629202 -0.8317036
-1.2931282 1.6568968 1.0449192 -1.159665 -0.4329416 0.61035 -0.2408848 -0.1416012
1.6552692 -0.557453 -3.186027 0.887042 4.35383 -1.4233362 -5.8276218 2.3372336
6.978335 -2.2387638 -7.3022274 1.5128542 6.8774238 -0.7031232 -5.2799344 0.2294916
4.223622 0.2498366 -2.5911392 -0.7348614 0.4329416 1.1450166 1.6463174 -0.5867498
-3.2788002 0.7153302 4.4978726 -0.6762678 -4.4303272 0.2327468 3.832998 0.0797524
-2.661126 0.024414 1.444495 -0.7381166 -0.9163388 1.477047 0.2335606 -1.6585244
0.9383114 2.1394802 -0.907387 -2.2843366 0.0024414 2.1695908 0.9423804 -1.7309526
-1.0978162 1.5844686 1.1572236 -1.46484 -1.285804 0.5444322 0.7592754 -0.0927732
-0.5834946 0.0577798 0.5948878 -0.130208 -0.386555 0.1896154 -0.2539056 0.1009112
0.9529598 -0.0675454 -0.9383114 -0.113932 0.6892886 -0.4093414 -0.7983378 0.7177716
0.8072896 -0.7299786 -0.6624332 0.6787092 0.1717118 -0.9407528 0.1782222 1.0392226
-0.5013008 -0.9863256 0.7185854 1.0205052 -0.8569314 -1.1970998 0.4939766 0.9920222
-0.5013008 -0.9497046 0.6583642 0.9130836 -0.5354804 -0.9407528 0.2010086 0.8715798
0.16276 -0.390624 0.0984698 0.256347 -0.20345 -0.0512694 0.2408848 -0.073242
-0.3352856 0.5419908 0.69173 -0.8357726 -0.748696 0.9619116 0.6648746 -0.972491
00000000: 5c43 0477 fb07 fbbf 041f 8315 a75a c53f
00000010: 439f d9bf fc5f 0340 0eba 298a fc9f f4bf
00000020: f2b3 91eb a654 06c0 b0aa 5e7e a7e9 0240
00000030: 11da 1775 5224 0140 2e42 0ccf a6fe 06c0
00000040: 43e7 902f fcbb f6bf 42ee 224c 510e 0840
00000050: ca13 ad81 52d9 f03f f2f5 10e8 a773 00c0
00000060: 8e85 329e 522f f0bf fe19 941f a71e e53f
00000070: 9506 239b 502d ec3f 0240 ba7d fbdf ba3f
00000080: 0e4a 9869 fb57 dbbf 95be 6b2b 51d1 f8bf
00000090: 3646 a11b 5025 df3f 8b51 d7da fbb4 0840
000000a0: 3220 7bbd fb63 e9bf cde4 40b4 fb9a 09c0
000000b0: 8b93 56d7 fcd3 f23f 615c 6045 fc39 0640
000000c0: 3af0 c572 a624 f9bf 0a10 0533 a6a0 fabf
000000d0: 6f73 19ed a755 0040 2f21 d566 5279 e13f
000000e0: b2a3 cc61 5297 01c0 73c7 516f fc3f e53f
000000f0: 55dc b8c5 fc3c 0340 77e7 3f5a 52c4 01c0
00000100: 041f 8315 a75a 05c0 22dc 099b a634 0840
00000110: 02b0 4b9e fc27 0440 0c93 a982 51c9 06c0
00000120: e05c 0d9a a744 02c0 1783 e222 520e 0340
00000130: 5916 4cfc 51f4 0340 21f0 7673 a72a a3bf
00000140: 1faf 5120 fd20 01c0 615c 6045 fc39 06c0
00000150: 6f17 f5a4 a703 0240 9ab6 7f65 a569 0f40
00000160: f82e 4a75 a615 09c0 a87b 5347 7d38 10c0
00000170: fff1 b96e a532 0f40 ee76 627b d2fe 1040
00000180: 1256 197c 50e6 0cc0 8274 b169 a550 0fc0
00000190: dbd3 1fab a5ca 0d40 9e6d 7f78 a70c 0340
000001a0: 4099 9020 a60e 0bc0 684d e262 fb7f 9bbf
000001b0: dcc6 551b 523b 0340 e1d8 0ea1 a506 eebf
000001c0: b76d ce77 a606 f9bf 0c23 1862 5081 fd3f
000001d0: f3e7 db82 a5ba de3f 4f4d 9363 fc85 05c0
000001e0: 9576 b4bb 5175 d53f de7d 4402 fcc9 0740
000001f0: e8bc c62e 51bd f8bf b5fe 9600 fcd3 07c0
00000200: 7522 1c0e a67c 0b40 20fd 4003 fbb9 fd3f
00000210: c22c 59ba 2784 11c0 dcc6 551b 523b f3bf
00000220: 51d0 37b3 a7ae 1140 9576 b4bb 5175 d53f
00000230: 1fd6 c0fb 4fe3 0fc0 c28b 193c a774 f43f
00000240: 5c5d a9c2 fa3a 0f40 c1ac 50a4 fbf9 f9bf
00000250: e7dd fd96 a542 0ec0 f870 c971 a734 0340
00000260: b412 04d9 fcc9 0240 36b6 323c 516d 08c0
00000270: f178 a40b fb87 edbf 7f5b 66c7 fc32 0340
00000280: 08fd f103 fcbf c73f 4208 c897 5041 fcbf
00000290: bfe1 f4e4 5075 ea3f e190 5731 a6aa ca3f
000002a0: 0845 a973 fb1b fbbf 5944 5e20 521d f33f
000002b0: ede2 ec8c a57e fe3f 7749 9c15 5153 f9bf
000002c0: 9397 eb23 a6fa fabf 39a8 0e03 a7c8 0540
000002d0: 02f8 020e fc83 f73f d751 d504 51b7 09c0
000002e0: d6ad f94c 5109 f8bf 1ac4 0776 fc17 0540
000002f0: 0ba7 165b 52bf f13f ba73 1717 fd57 01c0
00000300: c49e 2c6b 5155 a7bf 4eca ee13 515d f93f
00000310: 71e8 88d7 50c5 cabf ee31 4745 5241 f2bf
00000320: 495c 1146 fd3f b03f eec1 b524 51f9 e83f
00000330: 5bfb 4c07 fcab e7bf 4c5b b79c a62a 983f
00000340: 6682 86a3 50fb fb3f fd82 82f7 faff adbf
00000350: 7b83 2f4c a60a fabf 1108 2a99 524d e03f
00000360: 9ca2 23b9 fc87 f33f 4208 c897 5041 ecbf
00000370: f058 c74c fd17 f0bf b1f8 4d61 a582 df3f
00000380: 7d62 f8e3 5185 f43f 7984 89f5 fc1f d2bf
00000390: 2616 9dd1 fbeb e8bf 5dda 159f a726 e23f
000003a0: 1377 6110 fd7f 913f 1eea 2dd4 50d9 eabf
000003b0: e56e c61f fb0f cd3f 1db6 e33c 5273 f23f
000003c0: 27ad aef9 a70a b0bf 9e6d 7f78 a70c f3bf
000003d0: d018 9c77 5215 d13f 0553 cdac a5c0 fd3f
000003e0: 34d7 69a4 a5f2 edbf 9214 47d4 fad1 febf
000003f0: d138 7936 5085 ee3f 68f1 bd1a fb2d fd3f
00000400: 7715 527e 52ed d0bf 3646 a11b 5025 ffbf
00000410: d4f6 0a66 a77a d33f dcb2 e842 5145 e83f
00000420: ca13 ad81 52d9 f0bf 0bfc 975a a5aa afbf
00000430: 77b9 2d36 529b f23f 18e5 3ede 509d eabf
00000440: c890 0832 a7b0 f4bf 878d 0d38 a682 fa3f
00000450: 5566 ef31 fdb7 f03f ae0d 15e3 fc8d f2bf
00000460: 89fc 44af 50b5 dbbf 9ca2 23b9 fc87 e33f
00000470: 843f 0d29 50d5 cebf 7984 89f5 fc1f c2bf
00000480: a337 818e fb7b fa3f aad3 81ac a7d6 e1bf
00000490: 4a62 49b9 fb7c 09c0 b7b5 85e7 a562 ec3f
000004a0: ee5f 5969 526a 1140 1a68 e32d fcc5 f6bf
000004b0: 9dd3 d116 7c4f 17c0 15e6 9887 a7b2 0240
000004c0: ef20 76a6 d0e9 1b40 debf c3fe fce8 01c0
000004d0: 08d2 7b19 7b35 1dc0 22dc 099b a634 f83f
000004e0: 9ded 7662 7b82 1b40 3de2 a139 fc7f e6bf
000004f0: fe19 941f a71e 15c0 9775 5a12 fb5f cd3f
00000500: 19aa 622a fde4 1040 bd02 2c4d a5fa cf3f
00000510: 9f11 5b30 a7ba 04c0 02f8 020e fc83 e7bf
00000520: 89fc 44af 50b5 db3f a808 26ed fc51 f23f
00000530: 3c5f fde9 5057 fa3f c2e7 3d84 a7c6 e2bf
00000540: 32f2 6899 fb3a 0ac0 9dea da28 fce3 e63f
00000550: 474c 9a50 d2fd 1140 d2cf 8a5e fca3 e5bf
00000560: 2751 8ab1 a7b8 11c0 dbd3 1fab a5ca cd3f
00000570: 3811 fdda faa9 0e40 ec0a c73d a76a b43f
00000580: 4948 a46d fc49 05c0 d317 42ce fbff 983f
00000590: b1c4 03ca a61c f73f 934f 34b4 a69e e7bf
000005a0: cfc9 41bf a552 edbf 857a fa08 fca1 f73f
000005b0: 6c2b 5151 50e5 cd3f 6be3 99e1 5089 fabf
000005c0: e1d8 0ea1 a506 ee3f 2d84 8bcb a71d 0140
000005d0: 0119 3a76 5009 edbf 5972 7044 5246 02c0
000005e0: a8ac 01a5 fcff 633f ac9e dd6b 525b 0140
000005f0: 5686 ccf0 fa27 ee3f 97d1 7e5a fbb1 fbbf
00000600: ce4d 40b8 a790 f1bf 5b9f 28bf fb59 f93f
00000610: d88c c2e4 fc83 f23f 55f6 5d11 fc6f f7bf
00000620: 450e 1137 a792 f4bf 6775 bc13 fd6b e13f
00000630: c108 75ec fb4b e83f 08fd f103 fcbf b7bf
00000640: 3190 0cde fcab e2bf b924 bd5e 5095 ad3f
00000650: ac42 b923 5209 e33f 8cba d6de a7aa c0bf
00000660: e8bc c62e 51bd d8bf dcb2 e842 5145 c83f
00000670: 495c 1146 fd3f d0bf 5ad4 ccff 50d5 b93f
00000680: ede2 ec8c a57e ee3f f2c7 fec3 a74a b1bf
00000690: e1d8 0ea1 a506 eebf 76c6 f7c5 a52a bdbf
000006a0: 162e 50f7 a60e e63f d586 7945 a632 dabf
000006b0: 8b23 c5b6 fb8b e9bf 49ec 7f25 fcf7 e63f
000006c0: 5ad4 ccff 50d5 e93f a9f4 b814 fc5b e7bf
000006d0: ab1b 391c a732 e5bf 7fd1 2f5b fcb7 e53f
000006e0: 692c abfa a6fa c53f 8dda b39d a51a eebf
000006f0: f0e8 352c fccf c63f b639 84e0 a7a0 f03f
00000700: 27ad aef9 a70a e0bf 7aa4 66b4 fa8f efbf
00000710: 2e42 0ccf a6fe e63f f55d b642 fd53 f03f
00000720: bb4b 3d66 fb6b ebbf 2fc5 b01e 5227 f3bf
00000730: 4250 7f07 509d df3f b7fd 3c57 a5be ef3f
00000740: 27ad aef9 a70a e0bf 5c8b bbe6 fa63 eebf
00000750: 356e 7bcc 5111 e53f 3e72 1019 fb37 ed3f
00000760: 98c4 b4ca a722 e1bf 8dda b39d a51a eebf
00000770: c97c 9b59 a6ba c93f c755 1b52 fbe3 eb3f
00000780: 2f69 8cd6 51d5 c43f d317 42ce fbff d8bf
00000790: f4c6 a41a 5135 b93f a25f 5b3f fd67 d03f
000007a0: 7b83 2f4c a60a cabf 9d32 9298 fb3f aabf
000007b0: 843f 0d29 50d5 ce3f de91 b1da fcbf b2bf
000007c0: 9576 b4bb 5175 d5bf ba73 1717 fd57 e13f
000007d0: c22f f5f3 a622 e63f 8d92 fc2d a6be eabf
000007e0: 2aac 5450 51f5 e7bf bb93 f4d5 fac7 ee3f
000007f0: 571d de18 a746 e53f 52f0 1472 a51e efbf
