ORIGINAL_Data/1797 RPM/1797_B_28_DE12.npz (npz, 966666 bytes, 1 tensors)

DE f8 [120801, 1]
00000000: 3fc1 6ad1 a7fa d0bf dd56 c4fa 50f3 f93f
00000010: 9a33 ec41 5255 a2bf d4ae 53f6 a71e 00c0
00000020: e6bd 20d8 a7d2 d03f 33a3 1f0d a78c f53f
00000030: ee79 feb4 519d f5bf 1c33 3fed a64a d6bf
00000040: 4642 5bce a5f8 fc3f 8e29 0e56 52dd d13f
00000050: ee79 feb4 519d f5bf a5ee 6f75 a50a dfbf
00000060: 320c 0ee5 fa6d fe3f 76c6 f7c5 a52a bd3f
00000070: d5ce 30b5 a58e fdbf abab a7fb a5ea eb3f
00000080: fe75 b867 a770 f33f b546 4e70 fb2f cbbf
00000090: 58f5 0368 a55a dfbf c67d f502 fdcf e1bf
000000a0: 7984 89f5 fc1f c2bf 0240 ba7d fbdf babf
000000b0: 654e 3c0c 5295 a3bf 77ed 77cd 5001 eb3f
000000c0: c0c0 bd7c fcef c4bf 32d8 c34d fc07 f6bf
000000d0: 78e0 ad3d fd71 f03f 8bdb 0d47 fc2f f63f
000000e0: fd82 82f7 faff edbf 934f 34b4 a69e f7bf
000000f0: 99e4 9189 a592 de3f e8a2 21e3 518a 0440
00000100: 068e ba8c 518d d6bf 3554 d680 52de 00c0
00000110: 7110 6388 52b1 f03f 4b13 002d a7ce f43f
00000120: 0a24 720b a796 e5bf babb ce86 fcb3 e4bf
00000130: 21f0 7673 a72a b33f f257 6da3 a602 d83f
00000140: 2b8b 1de8 fc6f c2bf 57d5 26a9 a7ea c1bf
00000150: dd42 5722 50fd ee3f 6fe9 e280 a7da d2bf
00000160: 00d1 8206 51ad e9bf 34d7 69a4 a5f2 dd3f
00000170: 7536 89e6 a672 d63f 9d32 9298 fb3f ba3f
00000180: aa2f a6f4 a728 f0bf 82d0 d5b1 a5a2 dd3f
00000190: 2871 6770 a528 ff3f 8a44 fc1e 5011 efbf
000001a0: 76c6 f7c5 a52a edbf 1f81 3ffc fcf7 e13f
000001b0: 89fc 44af 50b5 cbbf bfe1 f4e4 5075 ca3f
000001c0: 495c 1146 fd3f a03f f47e edaa 51d9 e5bf
000001d0: 3b73 6ac2 514d d53f 26ce e561 fc8f e53f
000001e0: d018 9c77 5215 c13f 598c 1590 5179 e6bf
000001f0: 2cab faa6 fadf dfbf 442f 489f fb17 fa3f
00000200: 3de2 a139 fc7f b6bf 040b 163d a664 fabf
00000210: 4d82 37a4 5101 e63f caff 3fa9 51e3 f53f
00000220: 08fd f103 fcbf a7bf ae97 4b4f fd08 00c0
00000230: 843f 0d29 50d5 ae3f 1a96 f551 fcee 0540
00000240: c49e 2c6b 5155 873f 9bf1 6c45 5136 08c0
00000250: 439f d9bf fc5f b3bf 0845 a973 fb1b 0b40
00000260: 469e 7f16 a64a cb3f 08cf dfdf fb96 08c0
00000270: 730f 09df fb9b e8bf cf81 8a4f a6f6 0940
00000280: 7df2 66c3 503d eb3f 8d64 ea09 a695 0bc0
00000290: 6100 3cfd fbe7 e7bf 896c d6cf 51fd 0440
000002a0: 9d7a 4908 fb9b ed3f f299 ec9f a721 02c0
000002b0: 5686 ccf0 fa27 eebf 2a08 7998 5147 0640
000002c0: d43e c2d5 a6d6 e63f 63cb 97bc a66c 07c0
000002d0: 0a6c 297b a6f2 e8bf 816e 79f6 a613 0640
000002e0: 4329 102c fdda 0040 5a1c 846f 5031 fdbf
000002f0: 8418 9e4d fd12 00c0 7230 4047 5021 fe3f
00000300: ffca 4a93 5270 0040 59e8 39d8 51cb f4bf
00000310: 7323 76b7 fc91 03c0 c52e 9b4a 500d ee3f
00000320: 0e5e 0542 fc4d 0640 4051 d9b0 a6b2 d7bf
00000330: 0d44 60f6 fc1a 02c0 a4ce 92b6 a79a e1bf
00000340: e0b8 31e2 a796 f03f 58f5 0368 a55a df3f
00000350: bb03 86f6 fb0f d8bf e283 8da1 521b f0bf
00000360: fe61 4b8f a67a d83f d018 9c77 5215 0140
00000370: abab a7fb a5ea bbbf c834 e4e9 a65e f6bf
00000380: 21f0 7673 a72a a3bf 942e fd4b 5219 f23f
00000390: 076d 8324 fd07 d13f 9fb5 36e8 a668 f6bf
000003a0: 0eba 298a fc9f b43f 0254 2756 fcd5 f53f
000003b0: 6c2b 5151 50e5 cd3f 80b0 f8f2 a732 f0bf
000003c0: 1597 3ecf faef cebf 3825 6ab3 fb9f e93f
000003d0: 26ce e561 fc8f c53f b034 95ea a764 f0bf
000003e0: 3a94 a12a a6d2 dabf e94c 350e 5075 ff3f
000003f0: 1ea2 7664 517d d73f c064 9934 fc9d f6bf
00000400: d018 9c77 5215 a13f d43e c2d5 a6d6 e63f
00000410: 1377 6110 fd7f 91bf f058 c74c fd17 e0bf
00000420: 7b83 2f4c a60a ba3f 684d e262 fb7f bb3f
00000430: f178 a40b fb87 ed3f 92bf c5d4 a7e6 e03f
00000440: 0089 cb96 5151 f6bf 3795 fbd3 fce7 f2bf
00000450: 61b8 848d fc8b e43f c108 75ec fb4b f83f
00000460: 83af 9e49 511d d8bf c108 75ec fb4b f8bf
00000470: b546 4e70 fb2f cb3f 8879 a05f a58c ff3f
00000480: ee31 4745 5241 e23f b8d6 cd7b 52fc 00c0
00000490: f4da 11f3 512b f4bf 6b0b 7492 5275 0040
000004a0: 737f 9aff fce3 0140 aff9 a70a fc97 f7bf
000004b0: 65aa 6054 52e7 01c0 a25f 5b3f fd67 f03f
000004c0: d194 9d7e 50d7 fc3f b625 1708 a7aa e5bf
000004d0: 8a44 fc1e 5011 ffbf 3a94 a12a a6d2 da3f
000004e0: 9775 5a12 fb5f 0d40 04d7 cba5 a7fe e13f
000004f0: 612b b2e7 7c72 12c0 ea2b fea5 fbef c9bf
00000500: f618 9b0c 7d96 1140 9fa1 c90f a672 ebbf
00000510: 0756 7a12 7d73 11c0 e43a 7c88 fca9 f43f
00000520: d693 5401 52d6 1340 8dee 2076 a610 f9bf
00000530: de1e 8480 7cd9 14c0 365a 0ef4 501b fa3f
00000540: 78e0 ad3d fd71 1040 77a5 c05d 51a5 f7bf
00000550: eae3 4636 fc93 06c0 f55d b642 fd53 f03f
00000560: a2d5 24d3 fcec 0240 57d5 26a9 a7ea d1bf
00000570: 775d 09ee 5149 f4bf e6bd 20d8 a7d2 e03f
00000580: 4a7c ee04 fbaf ed3f 1407 d0ef fb37 d83f
00000590: 3b73 6ac2 514d d53f f9ec ca78 a5f6 eebf
000005a0: a094 ff7f 52e3 f0bf f4c6 a41a 5135 f93f
000005b0: c40e be8b 529d e03f 4d3a 8034 52a5 02c0
000005c0: ea9b 8fc6 fc37 d33f 730f 09df fb9b 0840
000005d0: e0b8 31e2 a796 f0bf fa6f 6fc8 501f 0bc0
000005e0: ec9a 351d a622 fb3f f800 3851 a6ec 0940
000005f0: 3f93 58ad a7d1 01c0 95ec 7d4f 51fa 07c0
00000600: 5524 7035 fc98 0640 1813 5102 51c6 0940
00000610: a1c8 4917 5149 f9bf da15 9fa7 a6e9 07c0
00000620: 6be3 99e1 5089 ea3f 0c51 2a86 50aa 0c40
00000630: 52a8 5d02 a6c2 dbbf c363 3f8b a588 0ec0
00000640: 1676 0767 a66a d9bf dd28 b2d6 50ca 0a40
00000650: 89fc 44af 50b5 eb3f ca5b 64f1 5135 04c0
00000660: 934f 34b4 a69e f7bf 64b7 2ae4 a576 fc3f
00000670: 1a9c 2dc5 fa2b ff3f b2eb 83d1 51f3 f4bf
00000680: 85d6 1e51 fcf3 f5bf c01c e2c4 fc41 f33f
00000690: 736b 2d27 fced f63f 0bfc 975a a5aa cfbf
000006a0: e4de 5740 fc57 d6bf a8ac 01a5 fcff 73bf
000006b0: 858e 67e1 fc97 e2bf 1298 9878 5105 c7bf
000006c0: 1beb 877d a7ee e23f a8ac 01a5 fcff 63bf
000006d0: 6fe9 e280 a7da c2bf 81f8 af62 a78e f33f
000006e0: 64ff e153 a5d2 dfbf e8fe 452b 52dc 02c0
000006f0: 0c4b f212 526d e33f 3526 c45c 52b5 0140
00000700: e0b8 31e2 a796 f0bf 9ca2 23b9 fc87 03c0
00000710: cda2 c1b7 fa7b ff3f b7e3 970b a68b 0b40
00000720: fe61 4b8f a67a f8bf bf85 d09c 5023 0cc0
00000730: 1beb 877d a7ee e23f 3ca7 b459 50b3 0d40
00000740: a37f 38fe fad7 dd3f 0c09 7316 514e 09c0
00000750: 37dd b243 fc43 e6bf e0a4 c409 a7a0 0540
00000760: 81f8 af62 a78e f33f 8e29 0e56 52dd 01c0
00000770: f02a b528 fdee 00c0 4208 c897 5041 fc3f
00000780: ad90 a806 50a2 0f40 a8ac 01a5 fcff a33f
00000790: 1195 fc3e d266 12c0 335b 689d a730 f2bf
000007a0: ac9e dd6b 525b 1140 08b5 3a94 fc63 e43f
000007b0: 71e5 ec9d d126 16c0 f47e edaa 51d9 e5bf
000007c0: 8f5d 58ed 5043 1a40 8aef 7a1f fd25 f13f
000007d0: 6d0a 1ae9 fb5f 18c0 d2e3 f736 fd99 f0bf
000007e0: d0bf 1369 d161 1740 b247 a819 5245 f33f
000007f0: 55f6 5d11 fc6f 17c0 cb47 f718 513f f9bf
-0.2652988 1.6219034 -0.0358072 -2.0149688 0.2628574 1.346839 -1.350908 -0.3483064
1.810705 0.2791334 -1.350908 -0.4850248 1.9018506 0.113932 -1.847326 0.8723936
1.2150034 -0.2124018 -0.4899076 -0.5566392 -0.1416012 -0.1049802 -0.0382486 0.8439106
-0.1635738 -1.3769496 1.0278294 1.3867152 -0.9374976 -1.4762332 0.4777006 2.567539
-0.3523754 -2.1085558 1.0432916 1.3004524 -0.6746402 -0.646971 0.0748696 0.3751618
-0.1440426 -0.1399736 0.968422 -0.2945956 -0.8024068 0.467935 0.3507478 0.1025388
-1.0099258 0.4630522 1.9474234 -0.9708634 -0.911456 0.561522 -0.2164708 0.2067052
0.0317382 -0.6827782 0.3328442 0.6738264 0.1334632 -0.7023094 -0.4980456 1.6308552
-0.0878904 -1.6495726 0.687661 1.3679978 -0.0463866 -2.0043894 0.0602212 2.7416922
0.0113932 -3.0265222 -0.0756834 3.3886632 0.2132156 -3.0737226 -0.769041 3.2454344
0.8512348 -3.4480706 -0.7470684 2.6236912 0.9252906 -2.266433 -0.9423804 2.7848236
0.7137026 -2.9280524 -0.7796204 2.7595958 2.1069282 -1.8245396 -2.0092722 1.8831332
2.054845 -1.2996386 -2.4462828 0.9391252 2.7880788 -0.370279 -2.2631778 -0.5501288
1.0367812 0.4899076 -0.3759756 -1.0066706 0.382486 2.1354112 -0.1090492 -1.3981084
-0.0374348 1.131182 0.2661126 -1.4005498 0.0805662 1.3647426 0.2335606 -1.0123672
-0.2416986 0.8007792 0.1684566 -1.0245742 -0.419107 1.9661408 0.3670238 -1.4135706
0.0333658 0.7137026 -0.0170898 -0.5029284 0.101725 0.1074216 0.9228492 0.5281562
-1.3948532 -1.1816376 0.6420882 1.5185508 -0.3767894 -1.5185508 0.2124018 1.9718374
0.5704738 -2.1232042 -1.2605762 2.0572864 2.2363224 -1.4746056 -2.23795 1.025388
1.802567 -0.6770816 -1.9417268 0.419107 3.6718656 0.5623358 -4.6118046 -0.2026362
4.3969614 -0.8577452 -4.3627818 1.2915006 4.9592972 -1.566565 -5.212389 1.631669
4.1113176 -1.4778608 -2.8222584 1.0205052 2.3657166 -0.2799472 -1.2679004 0.5257148
0.927732 0.378417 0.3328442 -0.9676082 -1.0554986 1.5755168 0.5192044 -2.3307232
0.3002922 3.076164 -1.0367812 -3.3902908 1.6959592 3.2405516 -2.2273706 -2.9972254
2.8246998 3.2218342 -1.5803996 -2.9890874 0.8292622 3.5831614 -0.4337554 -3.816722
-0.3971344 3.348787 0.8658832 -2.5260352 -1.4762332 1.7789668 1.9482372 -1.3094042
-1.3720668 1.2036102 1.4331018 -0.2473952 -0.3491202 -0.0048828 -0.5810532 -0.1798498
0.5916326 -0.0024414 -0.1472978 1.2223276 -0.4972318 -2.3575786 0.6070948 2.213536
-1.0367812 -2.4414 1.9677684 3.4431878 -1.529944 -3.5172436 0.5916326 3.7125556
0.4663074 -3.1632406 -0.695799 2.7034436 1.2223276 -2.2330672 -2.1166938 1.765946
3.9542542 0.0390624 -4.6004114 -1.1368786 4.3391816 0.6372054 -5.537909 -0.6827782
6.5657384 1.0717746 -6.0937344 -1.037595 5.8455254 1.204424 -5.85936 -1.5779582
